lstm_volatility_model.pth (torch, 135100 bytes, 9 tensors)

lstm.weight_ih_l0 f4 [200, 10]
-0.2121042 -0.12540437 -0.022283047 -0.004068862 0.049800616 0.13303193 0.046040088 0.27193317
-0.07975759 -0.012455067 0.27457094 0.06615196 -0.053900003 0.19982947 0.06852579 0.016827088
0.11362608 0.099851735 -0.19666387 0.16557825 -0.07428128 -0.07765018 -0.024829563 0.07105297
0.1035795 0.0076274285 -0.10772267 -0.050151467 -0.098652765 -0.020723335 -0.08744794 0.32787633
0.006620157 0.2195916 0.24093843 -0.046358127 -0.39745107 -0.07958995 0.29155454 0.4725591
0.047723416 0.10122729 -0.007531308 -0.054391857 0.17960565 -0.15381564 0.05181841 -0.14278314
0.02315992 -0.16930875 0.04103382 0.08688561 -0.10025612 0.27782336 0.15996747 0.028950894
0.057304084 0.18498814 -0.13754958 -0.154989 0.03761497 0.23903196 -0.043927185 0.0704998
0.1433722 0.14745805 0.021930763 -0.114930466 0.06921729 0.07667406 -0.1243072 -0.14881082
0.21041945 0.25121695 0.018198062 0.42612413 0.13462573 -0.26859748 0.27791297 -0.334994
0.100910306 0.32601917 0.16988106 -0.013528689 -0.09424898 0.0882126 -0.16761889 0.08854626
-0.14834808 -0.075033024 -0.19080013 -0.30512306 -0.17681098 -0.11211392 0.041743524 0.07247479
-0.155306 -0.08378636 -0.08707107 -0.4267081 -0.2628509 -0.06170985 -0.031057505 0.122888654
0.0925759 0.062640965 -0.04836331 0.11368639 0.17774741 0.06468202 0.060796525 -0.0942466
-0.026143169 -0.21545374 0.03890397 0.12160374 -0.04163629 -0.121978596 0.08871202 0.027524035
0.11884381 0.35991722 -0.053487632 -0.15382268 -0.07308366 0.11134286 0.44466683 -0.3808407
-0.054757435 0.1597137 0.08848597 0.22342095 0.019002624 0.10246524 0.029336775 -0.27573654
0.14410998 -0.12893604 0.06543894 0.31097025 0.24387395 0.16631697 0.017949188 0.004743225
0.05499963 0.20685591 -0.08105914 -0.07488021 -0.050934426 0.016575392 -0.2303735 0.40371493
-0.2963934 0.1601131 -0.2061647 -0.19986327 -0.09766683 -0.053242944 0.16678898 -0.19530818
0.060621087 -0.07874434 0.13071205 0.11966704 0.064887606 0.19756767 0.07589896 0.06738678
0.019926988 -0.022010561 0.19064766 -0.20373097 0.0888478 -0.16931823 0.13082728 -0.47313946
-0.38237858 0.008862042 0.03683373 -0.44450352 -0.07005894 0.06885999 -0.008063777 0.07115419
0.11028519 0.009901542 0.03729227 -0.08239606 -0.05857066 0.018871004 -0.07802035 -0.16287822
0.06814703 0.005474082 0.09952573 0.04467004 -0.1333889 0.18075186 0.060386747 0.051551342
-0.20308772 0.022469485 0.18856944 -0.15369493 -0.024909362 0.31752786 0.09712065 0.04019751
-0.045116905 -0.03233462 -0.11202342 -0.090801746 0.17507552 0.048187602 -0.08222702 0.0932827
-0.048298106 0.11751084 0.23802888 -0.27692252 -0.03854139 -0.07604529 0.0018804225 -0.21246752
0.038070623 0.20342705 -0.024725065 0.13835955 -0.01704497 -0.05836377 -0.14328808 -0.17519106
0.22046836 0.010008767 0.21181287 -0.09868738 -0.21852994 0.083497815 0.13225174 0.0767879
-0.05170798 0.05382058 -0.02165002 0.098372124 -0.033493005 0.0032835538 -0.12739894 0.002526107
-0.2281681 0.19106525 0.17738678 -0.43068203 0.09867774 0.32498807 -0.10612504 -0.22144298
00000000: d831 59be 016a 00be f08a b6bc 1754 85bb
00000010: bbfb 4b3d 8639 083e 8894 3c3d d33a 8b3e
00000020: f357 a3bd 5610 4cbc 9094 8c3e ae7a 873d
00000030: 40c6 5cbd 19a0 4c3e 4057 8c3d f6d8 893c
00000040: cab4 e83d 117f cc3d 4162 49be 588d 293e
00000050: c920 98bd 0f07 9fbd 5e67 cbbc 3884 913d
00000060: 7d21 d43d 82ef f93b b49d dcbd a06b 4dbd
00000070: 760a cabd fcc3 a9bc e817 b3bd 68df a73e
00000080: e7ed d83b 9fdc 603e 90b8 763e 05e2 3dbd
00000090: b57e cbbe 0e00 a3bd a346 953e 44f3 f13e
000000a0: a179 433d 4150 cf3d 31c9 f6bb ffc9 5ebd
000000b0: 8bea 373e d981 1dbe 8b3f 543d be35 12be
000000c0: dfb9 bd3c 465f 2dbe 1413 283d 15f1 b13d
000000d0: 1553 cdbd dd3e 8e3e 83ce 233e 6d2a ed3c
000000e0: b0b7 6a3d 886d 3d3e ccd9 0cbe 70b5 1ebe
000000f0: 2812 1a3d cbc4 743e feec 33bd 3362 903d
00000100: 29d0 123e 3eff 163e 25a8 b33c aa60 ebbd
00000110: cbc1 8d3d 4a07 9d3d c694 febd dd61 18be
00000120: 3278 573e 829f 803e 1a14 953c f12c da3e
00000130: 54db 093e 9c85 89be 9c4a 8e3e 5584 abbe
00000140: 10aa ce3d fceb a63e 4df5 2d3e 6fa7 5dbc
00000150: 9c05 c1bd cfa8 b43d 49a4 2bbe be57 b53d
00000160: 8fe8 17be eaaa 99bd 1c61 43be 1739 9cbe
00000170: f00d 35be fc9b e5bd 42fb 2a3d aa6d 943d
00000180: 8908 1fbe 2f98 abbd 5152 b2bd 7c79 dabe
00000190: 6594 86be 78c3 7cbd 4f6c febc 0cad fb3d
000001a0: 6f98 bd3d e849 803d 9b18 46bd 69d4 e83d
000001b0: 6b03 363e 0278 843d c705 793d 5d04 c1bd
000001c0: 332a d6bc e89f 5cbe c559 1f3d 620b f93d
000001d0: d08a 2abd eacf f9bd a6ae b53d 167a e13c
000001e0: 6264 f33d 1247 b83e d915 5bbd b183 1dbe
000001f0: e3ac 95bd ba07 e43d 5fab e33e 8dfd c2be
00000200: 5549 60bd fd8b 233e 2238 b53d 76c8 643e
00000210: 64ab 9b3c 4cd9 d13d ad53 f03c 572d 8dbe
00000220: 9191 133e cf07 04be da04 863d 7e37 9f3e
00000230: 18ba 793e ff4e 2a3e 2d0a 933c 0e6d 9b3b
00000240: 4b47 613d 09d2 533e 5602 a6bd cc5a 99bd
00000250: 9ea0 50bd 1ec9 873c 08e7 6bbe b9b3 ce3e
00000260: e0c0 97be b0f4 233e d71c 53be f5a8 4cbe
00000270: 8c05 c8bd 4615 5abd bbca 2a3e defe 47be
00000280: d14d 783d b644 a1bd 61d9 053e fe13 f53d
00000290: cbe3 843d 2e4f 4a3e ea70 9b3d 1502 8a3d
000002a0: ec3d a33c 7e4f b4bc 2439 433e da9e 50be
000002b0: d6f5 b53d c261 2dbe 96f7 053e 563f f2be
000002c0: 20c7 c3be 1932 113c f7de 163d f795 e3be
000002d0: 107b 8fbd 7706 8d3d ef1d 04bc 4ab9 913d
000002e0: 34dd e13d 143a 223c c8bf 183d 44bf a8bd
000002f0: cae7 6fbd 5d97 9a3c 22c9 9fbd 8cc9 26be
00000300: ac90 8b3d ee5f b33b 25d4 cb3d eff7 363d
00000310: 1a97 08be 0417 393e 1858 773d 8027 533d
00000320: 3af6 4fbe ed11 b83c 5918 413e 3462 1dbe
00000330: b80e ccbc 0393 a23e 31e7 c63d 25a6 243d
00000340: 81cc 38bd 4e71 04bd 896c e5bd 44f6 b9bd
00000350: ff46 333e 5d60 453d a466 a8bd 000b bf3d
00000360: 3cd4 45bd 86a9 f03d d8bd 733e cac8 8dbe
00000370: 94dd 1dbd a2bd 9bbd 8278 f63a 1691 59be
00000380: f1ef 1b3d 2e4f 503e 388c cabc 20ae 0d3e
00000390: e5a1 8bbc d90e 6fbd 1cba 12be 4965 33be
000003a0: 75c2 613e d0fb 233c 79e5 583e 9c1c cabd
000003b0: 50c6 5fbe e700 ab3d 006d 073e f942 9d3d
000003c0: bfcb 53bd f872 5c3d 625b b1bc 5377 c93d
000003d0: f62f 09bd e430 573b de74 02be 0b8d 253b
000003e0: e6a4 69be 9ca6 433e e1a4 353e 5b82 dcbe
000003f0: 8e17 ca3d d664 a63e 1658 d9bd f3c1 62be

lstm.weight_hh_l0 f4 [200, 50]
-0.027820818 -0.045772944 0.033431638 -0.15136527 0.03758039 0.15114175 0.21440168 -0.13571988
-0.16049652 0.007916286 -0.029490301 0.13166383 -0.00795046 -0.01884904 -0.04450293 -0.2313966
-0.12612641 0.13246466 -0.027762698 -0.028211586 -0.17317094 -0.030629428 0.023016427 -0.16939506
-0.12264056 -0.11227802 0.055964764 -0.012354585 -0.14518273 -0.06347197 0.14279771 -0.35487652
0.14500138 -0.058463924 -0.018084241 -0.08295509 0.0030981097 -0.0038941195 0.16242106 0.05779445
0.1884956 0.06808889 -0.005001383 -0.07898063 -0.204147 -0.10948893 0.07820244 -0.021175027
0.1430082 -0.06630556 -0.09555194 -0.060683053 -0.008993925 -0.016328402 0.09852836 0.16795313
0.08352928 -0.25009856 -0.0026210519 0.027322026 -0.11814914 0.09796641 -0.0692963 -0.1117702
0.0066140406 -0.2881354 -0.13053177 0.15301721 -0.08691155 0.03691097 -0.06587838 0.04069297
0.06952263 -0.026587004 0.023761082 -0.08420248 -0.10580074 -0.029359246 0.05668071 -0.024309812
-0.054246306 -0.30852115 0.032856226 -0.021633783 0.25050196 0.02095982 -0.089003734 0.014360703
0.06592943 0.14659949 0.17680937 -0.022297906 -0.07427287 -0.13970116 -0.011597628 -0.18377167
0.11093439 0.1827417 0.10887589 -0.12543787 0.029095577 0.03477707 0.14714827 -0.22209287
0.15741175 0.17426653 0.068577245 -0.1412198 -0.033363335 -0.1756769 -0.17824593 0.06622475
-0.048683085 -0.100653335 0.0046958607 -0.36314425 -0.023904601 0.17336597 -0.1665136 0.12996055
-0.30134687 -0.03093857 -0.10068334 -0.17603701 -0.014458882 -0.114572406 0.07150477 -0.019514391
-0.13653989 -0.113257356 0.010289728 -0.49783453 0.14201841 0.065150015 0.11474649 -0.13728197
0.15393592 0.099814735 0.17773756 0.123253115 0.111884475 0.0020458126 0.0031260527 -0.07558481
0.055052977 -0.19033323 -0.038504254 0.13810277 0.0043265955 -0.139217 -0.0682113 0.024783563
-0.21518317 0.2712867 -0.014946311 0.1350293 0.079447225 -0.0446875 -0.021705551 0.07324383
-0.012235493 0.090313606 0.025903339 -0.0570472 -0.05452012 0.07526008 -0.12396145 0.1819777
-0.19090828 0.04518836 -0.1644626 -0.061090983 -0.20983544 0.025660275 -0.13554996 0.043872096
-0.08021162 0.14213079 0.15181175 -0.063586615 -0.061398115 -0.17800577 0.1645158 -0.19927514
-0.030978417 -0.33910754 -0.029588694 -0.12450828 0.017885884 -0.011768857 -0.10612441 0.017095314
-0.10833007 0.01368288 -0.2881279 -0.17984176 0.081622384 -0.09567102 -0.16565065 0.025080856
-0.08434494 0.04326925 0.051851492 0.10108028 0.07143451 0.086493075 0.23141709 -0.21322727
-0.10123375 0.11332285 -0.16683808 -0.13077645 -0.05615957 -0.05942083 0.11144722 -0.28213027
0.074432954 -0.12713103 -0.05057911 0.09606169 -0.06127175 -0.04020614 0.03231199 -0.0090469625
-0.014548003 -0.22213908 -0.012910805 -0.11092344 -0.12834823 -0.12223283 0.036760356 -0.34232488
0.21050833 0.10084072 0.147578 -0.009308568 -0.058539283 0.17346747 0.04565097 -0.0030280915
0.06809323 0.13924433 0.117101826 0.13115147 -0.0036647797 -0.15372992 -0.13121192 0.15007718
0.08174272 -0.081251614 0.013362413 0.09325477 -0.024513952 0.0015204718 0.01955405 0.14918627
00000000: 7ce8 e3bc 697c 3bbd 9def 083d 7fff 1abe
00000010: e5ed 193d e7c4 1a3e 1d8c 5b3e 27fa 0abe
00000020: 3359 24be 4fb3 013c a595 f1bc e2d2 063e
00000030: a542 02bc 4d69 9abc b448 36bd 3bf3 6cbe
00000040: 4827 01be d1a4 073e 996e e3bc fc1b e7bc
00000050: b953 31be 91ea fabc f28c bc3c e675 2dbe
00000060: f92a fbbd 05f2 e5bd 4f3b 653d e36a 4abc
00000070: c8aa 14be 98fd 81bd 9039 123e 60b2 b5be
00000080: 3e7b 143e de77 6fbd 6725 94bc 5ce4 a9bd
00000090: a809 4b3b 7c34 7fbb b551 263e e0b9 6c3d
000000a0: fe04 413e 3072 8b3d a4e2 a3bb 99c0 a1bd
000000b0: e90b 51be bb3b e0bd 9a28 a03d 4077 adbc
000000c0: be70 123e 36cb 87bd bcb0 c3bd cb8e 78bd
000000d0: 415b 13bc 24c3 85bc 3dc9 c93d e8fb 2b3e
000000e0: 6611 ab3d eb0c 80be f4c5 2bbb 71d2 df3c
000000f0: 2df8 f1bd 9da2 c83d 38eb 8dbd c6e7 e4bd
00000100: 98ba d83b 7c86 93be 1faa 05be 8bb0 1c3e
00000110: affe b1bd f52f 173d 3eeb 86bd acad 263d
00000120: e161 8e3d fdcc d9bc 9aa6 c23c 5a72 acbd
00000130: 0fae d8bd cd82 f0bc 082a 683d 5f25 c7bc
00000140: 6031 5ebd 7cf6 9dbe 4094 063d 5539 b1bc
00000150: cb41 803e eeb3 ab3c 9747 b6bd 2749 6b3c
00000160: 0206 873d 2d1e 163e 840d 353e 19aa b6bc
00000170: 601c 98bd d20d 0fbe fa03 3ebc a42e 3cbe
00000180: 9231 e33d a420 3b3e 53fa de3d c972 00be
00000190: d959 ee3c 6772 0e3d 09ae 163e 506c 63be
000001a0: 8c30 213e ed72 323e 3a72 8c3d ec9b 10be
000001b0: fea7 08bd a5e4 33be 1a86 36be d7a0 873d
000001c0: ea67 47bd 5623 cebd bcdf 993b 0bee b9be
000001d0: 95d3 c3bc d986 313e 8b82 2abe 6114 053e
000001e0: 234a 9abe e272 fdbc 1133 cebd 0c43 34be
000001f0: f2e4 6cbc f0a4 eabd 1871 923d a5dc 9fbc
00000200: 1dd1 0bbe 79f3 e7bd 3f96 283c 2be4 febe
00000210: 466d 113e 5f6d 853d 3500 eb3d a593 0cbe
00000220: 61a1 1d3e ab6b cc3d d600 363e 216c fc3d
00000230: b023 e53d 0a13 063b 76de 4c3b 35cc 9abd
00000240: 3b7f 613d b7e6 42be a3b6 1dbd d06a 0d3e
00000250: 1dc6 8d3b e78e 0ebe 5eb2 8bbd e606 cb3c
00000260: fa58 5cbe 17e6 8a3e 5fe1 74bc 1f45 0a3e
00000270: 3ab5 a23d 3d0a 37bd d7cf b1bc dc00 963d
00000280: 6177 48bc 57f6 b83d 3d33 d43c 53aa 69bd
00000290: 7d50 5fbd f521 9a3d 80df fdbd 5d58 3a3e
000002a0: 767d 43be 6e17 393d e268 28be 8a3a 7abd
000002b0: 1adf 56be 7f35 d23c 9ccd 0abe 3ab3 333d
000002c0: fd45 a4bd bc8a 113e 8a74 1b3e b339 82bd
000002d0: 977c 7bbd 2547 36be d476 283e c80e 4cbe
000002e0: 73c6 fdbc 819f adbe fd63 f2bc 32fe febd
000002f0: 6b85 923c 2ad2 40bc c157 d9bd 790b 8c3c
00000300: 28dc ddbd 292e 603c 8085 93be 7028 38be
00000310: a329 a73d 2bef c3bd 53a0 29be 5e76 cd3c
00000320: 0abd acbd 193b 313d 3b62 543d 2e03 cf3d
00000330: 424c 923d 4823 b13d 9af8 6c3e 4058 5abe
00000340: a453 cfbd cf15 e83d 9ad7 2abe 43ea 05be
00000350: 9407 66bd 4263 73bd 713e e43d 6173 90be
00000360: 4e70 983d a32e 02be 0a2c 4fbd febb c43d
00000370: 16f8 7abd 32af 24bd 9459 043d b639 14bc
00000380: bf5a 6ebc 6d78 63be d787 53bc d42b e3bd
00000390: b86d 03be 3555 fabd 0792 163d 3545 afbe
000003a0: 7f8f 573e 9485 ce3d b01e 173e f782 18bc
000003b0: e3c6 6fbd 75a1 313e 83fc 3a3d f272 46bb
000003c0: 7774 8b3d 1196 0e3e 15d3 ef3d 924c 063e
000003d0: cd2c 70bb 606b 1dbe 6b5c 06be d5ad 193e
000003e0: ba68 a73d 3f67 a6bd 06ee 5a3c 5bfc be3d
000003f0: 7cd1 c8bc 914a c73a d12f a03c 49c4 183e

lstm.bias_ih_l0 f4 [200]
-0.4862103 -0.3964892 -0.58782434 -0.29256034 -0.4832484 -0.46635464 -0.31586882 -0.15293583
-0.4950885 -0.37509555 -0.15566693 -0.41771635 -0.23709758 -0.46329957 -0.5814511 -0.02900407
-0.6006248 -0.4045087 -0.45295954 -0.51888645 -0.25970584 -0.58860147 -0.52998203 -0.627488
-0.40537632 -0.10805858 -0.50818354 -0.31051755 -0.4109348 -0.6018884 -0.29900903 0.036642388
-0.43340462 -0.4713578 -0.23134294 -0.2989126 -0.27507287 -0.42815566 -0.48461023 -0.37512586
-0.57688785 -0.42386 -0.18751991 -0.36115894 -0.25711906 -0.28286427 -0.13924447 -0.54410803
-0.31698945 -0.4637226 -0.2775372 -0.29278114 -0.32045886 0.35020158 -0.38082024 -0.31887624
-0.39171338 0.16400674 -0.3534554 -0.4486125 -0.19377947 -0.21493644 -0.13366087 -0.38081527
-0.37089705 0.015662724 -0.44199646 -0.078626774 -0.25568685 -0.47378746 -0.20706065 -0.26850888
-0.26840842 -0.25613993 -0.3032644 -0.10291818 -0.4905195 0.06128032 -0.3564397 -0.39600113
-0.06863972 0.30615258 -0.31246358 -0.46130148 -0.22505161 -0.11914039 -0.07976024 -0.38566095
-0.13785523 -0.068625025 -0.3671953 -0.3968515 0.13225198 0.1106277 0.07983414 0.18245634
0.07243774 -0.2908506 0.36133972 -0.35433006 0.038414136 0.095112465 0.04168431 0.2177752
0.0035028171 -0.02883016 0.07586468 0.182594 -0.052686736 -0.08282145 0.06076326 -0.093727395
0.08846813 -0.034321807 -0.0071556713 0.20891425 0.0075779534 0.060144577 0.022510087 -0.14277679
0.03032012 -0.012388289 0.015234084 0.0075719813 0.013607147 0.13176909 0.015912246 -0.045283973
0.117375866 0.03279139 -0.008539723 0.3214034 -0.07167103 0.04714416 0.04141879 -0.12651166
-0.11702375 -0.038634863 0.1040013 0.027116487 -0.079391636 -0.034582134 -0.15856445 -0.13745755
0.034406193 -0.010960276 0.07197113 0.0030930084 -0.1582941 0.09153819 -0.5281448 -0.460813
-0.39982766 -0.12531808 -0.3939379 -0.3110017 -0.5488404 -0.16960934 -0.51980746 -0.5285546
-0.38546345 -0.67911303 -0.10776089 -0.61115 -0.71477807 -0.07609641 -0.53920436 -0.093912475
-0.61804897 -0.7020433 -0.33127928 -0.40594277 -0.64383477 -0.5081778 -0.5647571 -0.035924915
-0.42670813 -0.20109361 -0.333316 -0.63668054 -0.31585366 0.18702605 -0.6337658 -0.56516516
-0.2625559 -0.374776 -0.37509462 -0.6135286 -0.56947625 -0.40715873 -0.49396327 -0.6264208
-0.27452132 -0.34517902 -0.24523015 -0.06622963 -0.18226406 -0.3504383 -0.11502767 -0.58384943
00000000: 8ef0 f8be a200 cbbe a87b 16bf 78ca 95be
00000010: 566c f7be 09c6 eebe 8fb9 a1be 369b 1cbe
00000020: 3d7c fdbe 860c c0be 2767 1fbe ebde d5be
00000030: b5c9 72be 9a35 edbe fbd9 14bf f299 edbc
00000040: 8cc2 19bf c41b cfbe 50ea e7be bed5 04bf
00000050: 2af8 84be 96ae 16bf e7ac 07bf 0ea3 20bf
00000060: 7c8d cfbe d14d ddbd 5118 02bf 28fc 9ebe
00000070: 0c66 d2be 5c15 1abf b617 99be 5416 163d
00000080: 36e7 ddbe cf55 f1be 2ae5 6cbe 130b 99be
00000090: 5ad6 8cbe 3837 dbbe d51e f8be 7f10 c0be
000000a0: ecae 13bf 2e04 d9be 3805 40be d3e9 b8be
000000b0: 1ca5 83be 96d3 90be 1a96 0ebe aa4a 0bbf
000000c0: 714c a2be 0c6d edbe 5b19 8ebe 69e7 95be
000000d0: 2f13 a4be 9f4d b33e dffa c2be bf43 a3be
000000e0: a88e c8be 62f1 273e 1bf8 b4be 8ab0 e5be
000000f0: 206e 46be 4c18 5cbe 65de 08be 38fa c2be
00000100: 38e6 bdbe 1d4f 803c 5c4d e2be 1307 a1bd
00000110: 63e9 82be 4594 f2be b507 54be ff79 89be
00000120: d46c 89be c624 83be 7945 9bbe c4c6 d2bd
00000130: 5f25 fbbe 1301 7b3d 447f b6be a9c0 cabe
00000140: fb92 8cbd 08c0 9c3e 3afb 9fbe b52f ecbe
00000150: ee73 66be e0ff f3bd 5659 a3bd 5a75 c5be
00000160: ec29 0dbe 478b 8cbd 0601 bcbe 1f30 cbbe
00000170: 106d 073e c790 e23d 1580 a33d d6d5 3a3e
00000180: 3d5a 943d 5fea 94be 8501 b93e c06a b5be
00000190: 2458 1d3d 53ca c23d 2bbd 2a3d 7600 5f3e
000001a0: 858f 653b 3a2d ecbc f15e 9b3d ecf9 3a3e
000001b0: 0cce 57bd 4b9e a9bd e5e2 783d 26f4 bfbd
000001c0: c72e b53d 0695 0cbd 1f7a eabb 9eed 553e
000001d0: 7b50 f83b 295a 763d 1367 b83c 1434 12be
000001e0: e661 f83c 40f8 4abc 6198 793c 621e f83b
000001f0: 83f0 5e3c 7aee 063e 665a 823c b07b 39bd
00000200: c262 f03d 4450 063d 32ea 0bbc fd8e a43e
00000210: 43c8 92bd 3c1a 413d c0a6 293d 468c 01be
00000220: 26aa efbd 973f 1ebd a2fe d43d 6523 de3c
00000230: 1598 a2bd ffa5 0dbd b85e 22be acc1 0cbe
00000240: 82ed 0c3d bb92 33bc 9a65 933d 12b4 4a3b
00000250: d917 22be 6078 bb3d 7f34 07bf aeef ebbe
00000260: 36b6 ccbe 6253 00be 3ab2 c9be 9d3b 9fbe
00000270: ce80 0cbf 12ae 2dbe 1a12 05bf 5b4f 07bf
00000280: 775b c5be 5ada 2dbf beb1 dcbd 5474 1cbf
00000290: b2fb 36bf 6fd8 9bbd 4c09 0abf 2f55 c0bd
000002a0: 7538 1ebf 1cb9 33bf 709d a9be bbd7 cfbe
000002b0: 5bd2 24bf f117 02bf ec93 10bf 0126 13bd
000002c0: 7d79 dabe 7ceb 4dbe 65a8 aabe 7ffd 22bf
000002d0: 92b7 a1be c283 3f3e 7a3e 22bf aaae 10bf
000002e0: ba6d 86be a4e2 bfbe 670c c0be 3610 1dbf
000002f0: 32c9 11bf 1c77 d0be c1e8 fcbe 1d5d 20bf
00000300: 0f8e 8cbe 4ebb b0be 9d1d 7bbe 66a3 87bd
00000310: 6ea3 3abe a66c b3be a193 ebbd 2877 15bf

lstm.bias_hh_l0 f4 [200]
-0.40805697 -0.644375 -0.55347323 -0.25052428 -0.39663598 -0.3294081 -0.46997806 -0.22735174
-0.69211763 -0.5203555 -0.31799427 -0.50241846 -0.3174114 -0.62962306 -0.5039828 -0.19603737
-0.5858409 -0.17039406 -0.3866604 -0.64251995 -0.5079158 -0.5834391 -0.46149713 -0.53934807
-0.56597924 -0.06532244 -0.626057 -0.39571092 -0.26836178 -0.5592343 -0.2533292 0.17859757
-0.37597936 -0.43588006 -0.20896566 -0.28150454 -0.20630912 -0.6518748 -0.59713 -0.27341658
-0.5714718 -0.43150714 -0.1980358 -0.2757748 -0.11990872 -0.17729226 -0.39909005 -0.45435622
-0.18618871 -0.44482267 -0.29203114 -0.46153647 -0.21161164 0.42009822 -0.16581896 -0.20212056
-0.1669846 0.2511288 -0.22653604 -0.3694672 -0.07688152 -0.21192731 0.022113638 -0.41518986
-0.46274543 0.101319954 -0.4379233 0.16155556 -0.4728671 -0.4675932 -0.11738588 -0.31760633
-0.2413171 -0.42365775 -0.2519891 0.14207795 -0.4149474 -0.033598457 -0.36374068 -0.3234383
-0.078505464 0.22446121 -0.12200847 -0.2806957 0.0077463156 -0.14425723 0.07399443 -0.43167943
-0.17717883 -0.28154138 -0.2402045 -0.23813011 0.06262388 0.110076815 0.28591526 0.17994513
-0.105609216 -0.273268 0.28393635 -0.21698503 0.0414177 -0.1534635 -0.018268088 0.04116558
-0.04082986 0.039376985 -0.08614747 0.04553859 0.00973 0.016814029 0.06688252 0.09720171
0.06547233 -0.15959845 -0.0062774434 0.12576042 0.07062447 0.026772592 0.044525914 0.117107324
0.14944181 -0.0007651339 -0.043833725 0.044353314 0.060797077 0.14341769 0.054653976 0.12584479
0.09000766 0.012596419 -0.18485211 0.352214 -0.015549221 0.053980693 0.08497743 0.059949443
-0.007934766 -0.044921175 -0.11059114 0.036483154 0.05305448 0.026740422 -0.056826863 0.0069990945
-0.1601554 0.0024399552 0.050452273 -0.039772656 -0.055858415 -0.036425337 -0.3774743 -0.5423488
-0.48421386 -0.19690159 -0.34579635 -0.5776217 -0.3807563 0.030086832 -0.40313458 -0.3671466
-0.28040713 -0.503004 -0.37051523 -0.41750517 -0.5045665 -0.015048724 -0.4565054 -0.19644979
-0.41325784 -0.7108247 -0.27215746 -0.65893275 -0.47001636 -0.5380976 -0.45671406 -0.26683617
-0.37296915 -0.38618654 -0.40327176 -0.5090829 -0.36367938 0.015124429 -0.58840907 -0.5315831
-0.19923468 -0.25253016 -0.11058145 -0.60035866 -0.5687912 -0.41868582 -0.5921501 -0.5547928
-0.16101757 -0.26619813 -0.25786835 -0.005233395 -0.33029023 -0.5154583 -0.1547237 -0.4774056
00000000: d8ec d0be c3f5 24bf 6cb0 0dbf b844 80be
00000010: df13 cbbe 2ea8 a8be f7a0 f0be e5ce 68be
00000020: 9f2e 31bf 0536 05bf 25d0 a2be 7f9e 00bf
00000030: bf83 a2be fa2e 21bf 0405 01bf 05be 48be
00000040: abf9 15bf c87b 2ebe 5af8 c5be 307c 24bf
00000050: c506 02bf 445c 15bf 5a49 ecbe b712 0abf
00000060: 04e4 10bf c5c7 85bd 4645 20bf 9f9a cabe
00000070: b766 89be fb29 0fbf 5db4 81be 48e2 363e
00000080: 5e80 c0be ac2b dfbe 18fb 55be 5d21 90be
00000090: b342 53be 44e1 26bf 83dd 18bf 42fd 8bbe
000000a0: fa4b 12bf 81ee dcbe e6c9 4abe 5b32 8dbe
000000b0: b492 f5bd 1a8c 35be 8855 ccbe 61a1 e8be
000000c0: 41a8 3ebe ccbf e3be 1b85 95be 824e ecbe
000000d0: b9b0 58be 1d17 d73e 72cc 29be b1f8 4ebe
000000e0: 03fe 2abe f493 803e 10f9 67be ce2a bdbe
000000f0: 0f74 9dbd 7903 59be a927 b53c c493 d4be
00000100: f8ec ecbe d680 cf3d 7c37 e0be d26e 253e
00000110: a31b f2be 6068 efbe 0268 f0bd 4c9d a2be
00000120: d41b 77be abe9 d8be b704 81be e27c 113e
00000130: fc73 d4be 899e 09bd 383c babe b499 a5be
00000140: 79c7 a0bd 29d9 653e 94df f9bd 59b7 8fbe
00000150: ced4 fd3b 2bb8 13be 648a 973d 1605 ddbe
00000160: 5e6e 35be 3126 90be 2bf8 75be 61d8 73be
00000170: f340 803d f46f e13d 7c63 923e 8943 383e
00000180: a549 d8bd c9e9 8bbe 1b60 913e 5331 5ebe
00000190: 9ba5 293d 8925 1dbe f5a6 95bc 3d9d 283d
000001a0: 363d 27bd c349 213d 166e b0bd ac86 3a3d
000001b0: 946a 1f3c 93bd 893c b4f9 883d b111 c73d
000001c0: 5b16 863d c76d 23be 03b3 cdbb 57c7 003e
000001d0: 90a3 903d 3252 db3c ce60 363d f7d5 ef3d
000001e0: 4607 193e 4493 48ba fe8a 33bd d2ab 353d
000001f0: 5b06 793d 16dc 123e d9dc 5f3d 75dd 003e
00000200: f055 b83d 3661 4e3c df49 3dbe 6555 b43e
00000210: 29c2 7ebc dc1a 5d3d a608 ae3d 8c8d 753d
00000220: d200 02bc 44ff 37bd 9c7d e2bd 5c6f 153d
00000230: a84f 593d bb0e db3c 49c3 68bd a958 e53b
00000240: c7ff 23be a8e7 1f3b 0ba7 4e3d a7e8 22bd
00000250: cbcb 64bd bc32 15bd 5044 c1be 5fd7 0abf
00000260: e1ea f7be 92a0 49be 380c b1be 04df 13bf
00000270: 7df2 c2be a978 f63c a867 cebe a4fa bbbe
00000280: 8691 8fbe dfc4 00bf 2cb4 bdbe 3dc3 d5be
00000290: 452b 01bf ec8e 76bc 13bb e9be 222a 49be
000002a0: 8896 d3be 9cf8 35bf 3958 8bbe d1af 28bf
000002b0: fca5 f0be c4c0 09bf 6dd6 e9be c09e 88be
000002c0: d0f5 bebe 3eba c5be a379 cebe 4253 02bf
000002d0: 2f34 babe 74cc 773c faa1 16bf d415 08bf
000002e0: 2d04 4cbe a24b 81be 8778 e2bd 1bb1 19bf
000002f0: 4d9c 11bf fd5d d6be 2697 17bf e706 0ebf
00000300: cae1 24be 1f4b 88be 5207 84be e67c abbb
00000310: cd1b a9be 13f5 03bf e46f 1ebe 826e f4be

lstm.weight_ih_l1 f4 [200, 50]
-0.056056965 0.050661672 0.08170568 -0.05138062 0.107567094 0.17862898 0.17159086 -0.18392663
0.011237263 -0.20139791 -0.26760012 0.01551138 0.15475993 0.0757153 -0.06541813 -0.42205614
0.022501137 0.20625958 -0.08006186 -0.08418724 -0.19601564 0.06694027 -0.044379693 -0.04836965
-0.189359 -0.28961265 -0.07322006 0.10039801 -0.015483243 -0.18222958 -0.031431712 -0.5999649
0.04690772 -0.05965052 0.06276185 -0.04878386 -0.079354696 0.06470015 0.19256079 0.039232247
0.17123032 -0.043451473 0.14089388 0.005267014 -0.026256274 -0.25292423 -0.074295096 -0.01646188
0.09730058 -0.057965796 -0.06717462 -0.12162424 0.020669747 -0.21907018 0.25872293 0.22406518
0.0578476 -0.2513882 0.032116562 0.06570161 -0.17362256 0.009102286 0.089035764 0.07284
-0.04716908 -0.33813548 -0.13822544 0.01524926 0.07564005 0.07459628 -0.27736157 0.0111368075
-0.08194231 0.08413396 -0.19439289 -0.2154087 -0.110507734 0.06757575 -0.046211712 0.10492942
0.014833872 -0.78533924 0.033279974 -0.04340934 -0.0070194076 -0.14878146 0.11940136 -0.08113665
-0.0097222375 0.24199387 -0.03293889 -0.015204575 0.0007056759 0.04670961 0.055227578 -0.10666651
-0.127491 0.19438934 -0.0068585956 -0.17125528 -0.018758299 0.12089202 0.12423076 -0.17469545
0.034741815 0.16880517 0.15582977 -0.360198 -0.16916697 0.023766644 -0.19968192 -0.037018403
0.08652085 0.015338851 -0.08779975 -0.17804688 0.06854352 -0.01154063 -0.06836856 -0.082412876
-0.21181956 -0.024043843 -0.002977542 -0.12748104 -0.056412123 -0.09029581 -0.10779173 0.043167345
-0.16459242 0.11880487 -0.0036001012 -0.7389103 -0.012830068 0.042169377 0.1415249 -0.1165811
-0.019565487 0.020128947 0.05604058 0.024291368 0.22540577 -0.116497494 0.12294622 -0.083809
-0.079209685 -0.12286167 0.12462144 0.0064556957 0.0014624224 -0.12691785 -0.15149447 -0.033418506
-0.045904867 -0.2563089 0.03488442 0.20914477 0.10119077 -0.29088336 -0.10760501 -0.15326534
-0.10903366 0.010695009 -0.12208394 -0.082517676 0.075055346 -0.3898792 -0.09702307 0.09450776
-0.039116606 0.13137354 -0.25307456 -0.02324422 -0.17392531 -0.11173251 -0.013857722 -0.09492199
-0.08764365 0.007693878 0.02104909 0.0500687 0.107290536 -0.6484765 0.13164127 0.014625328
0.07517712 -0.23416373 -0.010571381 0.103157856 0.21131168 0.061000124 0.16647862 0.08698199
0.06051959 0.10302956 0.04374562 -0.15371858 -0.08817906 -0.020559052 0.07531592 -0.112751275
-0.19447933 0.13663144 -0.1032295 -0.062927924 -0.012422921 0.017521512 0.0962353 -0.26818523
-0.04770771 0.10145696 -0.30390823 -0.0233052 0.10628848 0.05731742 0.06105216 -0.3785544
-0.17032458 0.13847856 -0.13076957 -0.13859648 -0.20397383 -0.0112669375 -0.035829782 -0.14834863
0.001330622 -0.330666 -0.11330555 0.03312808 -0.0040111793 0.0008496478 -0.058723103 -0.6984542
0.090690926 0.14407821 0.039224498 0.019371876 0.10743041 -0.0701952 0.06622737 -0.08792999
-0.02431173 0.02643882 -0.030654123 0.09159666 -0.0301063 -0.005593478 -0.05200302 0.09862556
-0.036952876 0.06689981 -0.1206934 0.0005877121 0.049843322 -0.029042553 0.054448314 -0.03267123
00000000: fd9b 65bd 9d82 4f3d 4f55 a73d 7c74 52bd
00000010: 234c dc3d 84ea 363e 84b5 2f3e 4357 3cbe
00000020: 7f1c 383c 413b 4ebe e202 89be 7123 7e3c
00000030: 6379 1e3e a010 9b3d f1f9 85bd be17 d8be
00000040: 4e54 b83c b635 533e 79f7 a3bd 5c6a acbd
00000050: 53b8 48be fb17 893d 7bc7 35bd 411f 46bd
00000060: 53e7 41be 1c48 94be 66f4 95bd 799d cd3d
00000070: 6ead 7dbc 649a 3abe 8abe 00bd 4d97 19bf
00000080: 4f22 403d 1b54 74bd 4989 803d 96d1 47bd
00000090: b784 a2bd 8381 843d a82e 453e feb1 203d
000000a0: 0057 2f3e 2cfa 31bd 7c46 103e ea96 ac3b
000000b0: 6617 d7bc 497f 81be 0728 98bd 11db 86bc
000000c0: 8745 c73d 8b6d 6dbd d992 89bd 2116 f9bd
000000d0: 9a53 a93c ef53 60be 5577 843e 5871 653e
000000e0: 9bf1 6c3d f4b5 80be a88c 033d 918e 863d
000000f0: 1dca 31be c121 153c 6258 b63d 232d 953d
00000100: 5d34 41bd 1820 adbe f88a 0dbe 08d8 793c
00000110: 2ce9 9a3d efc5 983d 5602 8ebe 2877 363c
00000120: 5fd1 a7bd 6d4e ac3d ee0e 47be 1994 5cbe
00000130: e151 e2bd 2865 8a3d 7e48 3dbd 3ce5 d63d
00000140: c509 733c fe0b 49bf 9550 083d fecd 31bd
00000150: 0f03 e6bb 2b5a 18be b388 f43d f92a a6bd
00000160: 054a 1fbc 3ecd 773e eeea 06bd 9c1c 79bc
00000170: 1cfd 383a 9352 3f3d 5036 623d f973 dabd
00000180: 008d 02be 000e 473e 12be e0bb 8b5d 2fbe
00000190: 01ab 99bc 3c96 f73d b26c fe3d 5de3 32be
000001a0: 6f4d 0e3d 43db 2c3e d791 1f3e df6b b8be
000001b0: 1b3a 2dbe 44b2 c23c 6b79 4cbe 9ca0 17bd
000001c0: d831 b13d ce4f 7b3c 5bd0 b3bd ec51 36be
000001d0: 8c60 8c3d e914 3dbc d104 8cbd 15c8 a8bd
000001e0: 3ae7 58be 98f7 c4bc de22 43bb 648a 02be
000001f0: 6610 67bd 02ed b8bd e9c1 dcbd 3ed0 303d
00000200: ea8a 28be f84f f33d adef 6bbb 3a29 3dbf
00000210: 3535 52bc ccb9 2c3d e7eb 103e 12c2 eebd
00000220: cd47 a0bc 76e5 a43c cf8a 653d b1fe c63c
00000230: c5d0 663e 3d96 eebd 3acb fb3d 0ea4 abbd
00000240: b038 a2bd e69e fbbd 8739 ff3d 4d8a d33b
00000250: c1ae bf3a c1f6 01be 5e21 1bbe d8e1 08bd
00000260: be06 3cbd ec3a 83be f7e2 0e3d 0c2a 563e
00000270: 1b3d cf3d aaee 94be 0460 dcbd 97f1 1cbe
00000280: 0a4d dfbd 1e3a 2f3c 2507 fabd 07ff a8bd
00000290: 9eb6 993d 3f9e c7be 08b4 c6bd 498d c13d
000002a0: bc38 20bd c986 063e fd92 81be aa6a bebc
000002b0: 7a19 32be 04d4 e4bd 800b 63bc 7666 c2bd
000002c0: 847e b3bd ed1c fc3b 246f ac3c d614 4d3d
000002d0: 24bb db3d 8e02 26bf f8cc 063e 129f 6f3c
000002e0: 76f6 993d 9ec8 6fbe 9633 2dbc 6d44 d33d
000002f0: 1762 583e 44db 793d 5f79 2a3e 9d23 b23d
00000300: 64e3 773d 2901 d33d 9b2e 333d 6768 1dbe
00000310: 3997 b4bd 756b a8bc 3c3f 9a3d 24ea e6bd
00000320: 9725 47be 1de9 0b3e fd69 d3bd 5be0 80bd
00000330: 8289 4bbc 4689 8f3c 0317 c53d 934f 89be
00000340: 2969 43bd abc8 cf3d dc99 9bbe 8cea bebc
00000350: c6ad d93d acc5 6a3d d411 7a3d e2d1 c1be
00000360: 9169 2ebe 53cd 0d3e 75e8 05be 3cec 0dbe
00000370: 84de 50be f698 38bc 40c2 12bd b4e8 17be
00000380: 4468 ae3a 0e4d a9be bd0c e8bd 4fb1 073d
00000390: 3670 83bb e6ba 5e3a a387 70bd e5cd 32bf
000003a0: 2abc b93d 3d89 133e dea9 203d c5b1 9e3c
000003b0: 7a04 dc3d 80c2 8fbd 37a2 873d a314 b4bd
000003c0: 6529 c7bc 3996 d83c 5b1e fbbc 0897 bb3d
000003d0: 7da1 f6bc 7f49 b7bb 1e01 55bd 33fc c93d
000003e0: e65b 17bd c502 893d 1a2e f7bd b110 1a3a
000003f0: 8328 4c3d a6ea edbc 3205 5f3d 45d2 05bd

lstm.weight_hh_l1 f4 [200, 50]
-0.008313154 0.09546094 0.030692795 -0.035554897 0.04612315 -0.06335022 -0.19744024 -0.08533548
0.060075585 -0.15500638 0.07483327 -0.120369494 0.15444866 0.049534652 -0.04199955 -0.08187341
-0.028059106 0.061421297 0.0016933859 -0.10775103 -0.18808223 -0.10559236 0.047600135 0.02245679
-0.022687828 0.08119863 0.037085917 0.0227786 -0.061840992 0.13505489 0.114257425 -0.0019574757
0.10674999 -0.015611486 -0.07030249 0.113178335 -0.10009144 -0.1145323 -0.15149797 -0.0016723238
0.0068409205 -0.107901156 -0.017289763 0.06436755 -0.070126995 -0.09621145 -0.11639048 -0.056503654
0.08071324 -0.036371898 -0.08360764 0.122899 -0.042843226 0.08642601 -0.030078998 0.04923167
-0.1926612 -0.21471563 -0.060970612 -0.19837861 -0.03141702 0.087947056 0.028692335 -0.13786775
-0.058317855 -0.017247574 -0.018465651 0.17913535 0.04721345 -0.026518011 -0.04392329 -0.1472285
-0.13421522 -0.08626027 0.0009854512 -0.019459393 0.10392787 0.06524875 -0.10058725 -0.13973254
-0.11438218 0.058368564 0.06355049 0.044811644 0.11761349 -0.040362757 0.16039674 0.081830986
-0.12634473 0.05773499 0.1451352 -0.013766397 -0.014916271 0.0390307 -0.07587538 -0.048594095
-0.1548611 -0.040090237 0.13417427 -0.23680863 0.062087916 0.11296156 -0.12951224 0.16018069
0.03236606 0.086424425 -0.002483875 -0.1207025 -0.0759416 -0.23546192 0.1893442 -0.067899905
0.16011962 -0.17741759 0.021768147 0.027279088 0.15622573 -0.086017795 -0.1402777 -0.1626048
0.001269102 -0.10020542 0.11763247 -0.07789588 0.07455892 -0.011911682 0.0041751554 -0.022178186
0.07079022 -0.06832405 0.04024422 -0.102724396 -0.0884779 -0.027078753 -0.08865225 0.07063558
0.01577912 -0.122275166 -0.07989333 0.07026474 0.027378438 0.04375712 0.05524697 -0.12492391
-0.039910946 -0.11534927 -0.010275533 0.048391197 -0.08035718 -0.06550841 -0.004948809 0.060794596
-0.067166366 -0.06202276 0.0121253515 0.090677045 0.014024336 0.039886292 0.04738934 -0.29179084
-0.023876961 0.08800826 -0.042762 0.02137383 0.027885098 -0.038479265 -0.03470761 0.011110793
0.08738275 0.004529839 0.015393813 0.0015602403 -0.014814937 -0.034496576 -0.014190873 -0.037456643
-0.012421849 -0.08055735 0.13501364 0.05480595 0.09342731 0.02444951 0.0515677 0.06876345
0.12423552 0.10996485 0.039496433 0.11599117 -0.114898086 0.08093805 -0.103481874 -0.12481933
-0.101250894 0.104633406 -0.045753874 0.104576446 -0.11060779 0.034520373 0.113939196 0.021191683
-0.08242509 0.11435739 -0.117074385 -0.00015631213 0.007992723 -0.03849096 -0.112210415 -0.124655075
-0.0907981 -0.23511973 -0.017159551 0.09440254 -0.03698227 -0.113178365 0.12739967 0.028080268
-0.11092221 0.07830591 -0.13898863 -0.17448641 -0.001242782 -0.16891709 -0.06309804 0.0386737
-0.00053519645 0.09851458 0.012161958 -0.02202381 -0.058152717 -0.013753006 -0.07016161 -0.09521019
-0.0037227806 0.099674635 0.13447468 0.0153405415 0.049250886 -0.13538605 -0.019822031 0.0052908184
0.06502776 -0.21730034 0.08297896 0.13019177 0.0014739141 0.05758886 -0.051225513 -0.14727412
-0.0016931989 -0.047237463 0.04861063 0.09899152 -0.114471294 0.031820748 -0.066609524 0.10295097
00000000: e533 08bc 0681 c33d 756f fb3c 03a2 11bd
00000010: a1eb 3c3d c3bd 81bd c62d 4abe 5ec4 aebd
00000020: d111 763d feb9 1ebe 2f42 993d 4884 f6bd
00000030: ca27 1e3e d9e4 4a3d b807 2cbd 3fad a7bd
00000040: 36dc e5bc e694 7b3d 9af4 dd3a 92ac dcbd
00000050: a198 40be cf40 d8bd 5cf8 423d 4df7 b73c
00000060: d3db b9bc 784b a63d 67e7 173d 309a ba3c
00000070: fb4c 7dbd d44b 0a3e ccff e93d fe48 00bb
00000080: bd9f da3d 51c7 7fbc c0fa 8fbd 0bca e73d
00000090: befc ccbd e98f eabd 4922 1bbe e031 dbba
000000a0: cd29 e03b 48fb dcbd 43a3 8dbc 22d3 833d
000000b0: be9e 8fbd 820a c5bd 225e eebd 6070 67bd
000000c0: fc4c a53d b3fa 14bd 7b3a abbd 79b2 fb3d
000000d0: 617c 2fbd 1f00 b13d 3b68 f6bc 26a7 493d
000000e0: fa48 45be 6ade 5bbe 52bc 79bd c323 4bbe
000000f0: 22af 00bd 961d b43d 300c eb3c 342d 0dbe
00000100: b4de 6ebd c94a 8dbc 4745 97bc 426f 373e
00000110: e462 413d 4d3c d9bc e8e8 33bd 11c3 16be
00000120: b76f 09be 39a9 b0bd 412a 813a 4e69 9fbc
00000130: 23d8 d43d 23a1 853d b000 cebd 0c16 0fbe
00000140: 3441 eabd e013 6f3d c226 823d 6a8c 373d
00000150: 57df f03d 6b53 25bd 0b3f 243e 0197 a73d
00000160: 8360 01be 867b 6c3d 529e 143e 748c 61bc
00000170: 6063 74bc a8de 1f3d 8d64 9bbd 9a0a 47bd
00000180: e893 1ebe a935 24bd fb64 093e f67d 72be
00000190: e64f 7e3d 6458 e73d db9e 04be 6806 243e
000001a0: 4692 043d 4aff b03d 82c8 22bb df32 f7bd
000001b0: 4587 9bbd ee1c 71be 72e3 413e 1b0f 8bbd
000001c0: 66f6 233e f5ac 35be 1d53 b23c 6578 df3c
000001d0: a3f9 1f3e 192a b0bd f5a4 0fbe df81 26be
000001e0: ff57 a63a 8038 cdbd 4be9 f03d e087 9fbd
000001f0: 59b2 983d 3729 43bc becf 883b 07af b5bc
00000200: 76fa 903d 7bed 8bbd 20d7 243d 2b61 d2bd
00000210: e733 b5bd 43d4 ddbc 508f b5bd 63a9 903d
00000220: 3743 813c 676b fabd 1d9f a3bd f6e6 8f3d
00000230: bf48 e03c aa3a 333d a64a 623d 1bd8 ffbd
00000240: a979 23bd 3d3c ecbd b65a 28bc d935 463d
00000250: 4e92 a4bd 4629 86bd 9e29 a2bb c103 793d
00000260: 858e 89bd 940b 7ebd 69a9 463c e3b4 b93d
00000270: 54c6 653c cf5f 233d 531b 423d 9c65 95be
00000280: 9e99 c3bc ad3d b43d 3527 2fbd 2c18 af3c
00000290: 4a6f e43c 6f9c 1dbd 9129 0ebd 0b0a 363c
000002a0: baf5 b23d 0b6f 943b 5536 7c3c fa80 cc3a
000002b0: 59ba 72bc 484c 0dbd d680 68bc 236c 19bd
000002c0: 0385 4bbc 40fb a4bd 0441 0a3e 347c 603d
000002d0: d156 bf3d 574a c83c a738 533d dad3 8c3d
000002e0: 316f fe3d 4035 e13d 03c7 213d c78c ed3d
000002f0: b04f ebbd d9c2 a53d 4eee d3bd 47a1 ffbd
00000300: a15c cfbd 0a4a d63d 6a68 3bbd 2d2c d63d
00000310: 5686 e2bd 3c65 0d3d f458 e93d 2e9a ad3c
00000320: 7cce a8bd 3534 ea3d b2c4 efbd b8e7 23b9
00000330: e9f3 023c b2a8 1dbd 93ce e5bd 294b ffbd
00000340: 5bf4 b9bd 3ac3 70be 3092 8cbc 1e56 c13d
00000350: b97a 17bd 0fca e7bd 0f75 023e 9708 e63c
00000360: 2f2b e3bd d95e a03d 0953 0ebe 91ac 32be
00000370: d8e4 a2ba 9af8 2cbe 8c39 81bd 5068 1e3d
00000380: 6d4c 0cba 03c2 c93d f342 473c 476b b4bc
00000390: 8b31 6ebd 4a54 61bc e4b0 8fbd 8ffd c2bd
000003a0: e5f9 73bb 3722 cc3d bbb3 093e e556 7b3c
000003b0: 4cbb 493d a4a2 0abe d061 a2bc 9a5e ad3b
000003c0: 462d 853d fb83 5ebe dff0 a93d fe50 053e
000003d0: 5a30 c13a 4ce2 6b3d d8d1 51bd 07cf 16be
000003e0: 54ee ddba 127c 41bd f11b 473d 11bc ca3d
000003f0: ed6f eabd 7956 023d 936a 88bd f5d7 d23d

lstm.bias_ih_l1 f4 [200]
-0.86380625 -1.0712808 -0.8780453 -0.92263174 -0.7871378 -0.91534555 -0.7524486 -0.9211845
-0.89983314 -0.21915112 -0.8857513 -0.9773855 -0.9236391 -0.7962097 -0.8136302 -0.99035853
-0.9219671 -0.8572585 -0.994612 -0.9974925 -0.9738889 -0.91646874 -0.77857983 -0.9198089
-0.89043105 -1.075445 -0.94375896 -1.1816082 -1.0283468 -1.0211678 -1.0511975 -1.1093291
-0.82186097 -0.8997637 -0.8852154 -0.9701835 -0.9968461 -0.8824536 -0.8700637 -0.7953374
-0.97624266 -0.7871774 -1.0255797 -1.0091441 -0.930029 -1.0919697 -0.8459272 -0.7978335
-1.243475 -0.8227716 -0.617005 -0.7376588 -0.4709735 -0.55433315 -0.6743747 -0.46442395
-0.5723325 -0.55325973 -0.46827626 -0.21631059 -0.6476627 -0.5610172 -0.59767306 -0.5248548
-0.5768353 -0.45981705 -0.61538374 -0.64860326 -0.6652043 -0.37911278 -0.44563425 -0.6609283
-0.5592796 -0.59670156 -0.45947048 -0.49744207 -0.5233873 -0.7784904 -0.70578015 -0.51887447
-0.41232532 -0.4745335 -0.5534881 -0.5546598 -0.4616129 -0.6708294 -0.5131857 -0.7817121
-0.5859403 -0.67172045 -0.6061161 -0.6909151 -0.66614157 -0.51312065 -0.4663599 -0.526388
-0.59066576 -0.5257068 -0.46434566 -0.5752678 -0.013259407 0.01768499 0.102927975 0.1252994
0.0701142 0.08429029 0.0673559 0.052245285 0.085232854 0.063792564 -0.09727122 0.036386922
-0.01183617 0.021113396 0.08923258 0.06997784 0.0004530861 -0.12951598 -0.014907211 -0.036352213
-0.068665914 0.017530482 0.06957744 -0.10005324 0.091538735 0.034947746 -0.116778456 -0.104430236
0.077117965 -0.028681196 0.04315043 0.03516331 0.07311182 -0.06592193 -0.029751109 0.1131983
0.07016053 0.0759326 -0.043198988 -0.019940667 0.12711188 0.09789104 0.026982019 -0.1015309
-0.007701773 -0.051532242 0.102758214 0.04828642 -0.021971857 0.010071573 -1.0218202 -0.99688
-0.8855384 -1.1183828 -0.9626877 -0.80806786 -0.7027833 -0.8481874 -0.87930816 -0.3971393
-0.8770415 -1.1872083 -0.8169395 -0.714413 -0.7885314 -1.0692832 -0.95314586 -0.9550975
-1.031483 -0.8899848 -1.056268 -0.8837726 -0.79378074 -1.0481075 -0.9398959 -0.8679988
-1.1015114 -1.0610305 -0.9913985 -1.0211879 -0.8614272 -0.89021754 -0.8598471 -0.93836534
-0.75725615 -0.83287644 -0.9779045 -1.1136881 -0.8884197 -0.8900271 -0.9232409 -0.87654644
-1.1514636 -1.0707526 -0.99780875 -0.90501124 -0.7784833 -0.7753938 -1.134854 -0.8582609
00000000: 6822 5dbf bb1f 89bf 94c7 60bf 9831 6cbf
00000010: dd81 49bf 1654 6abf 79a0 40bf bfd2 6bbf
00000020: 775b 66bf 2769 60be 99c0 62bf f035 7abf
00000030: 9d73 6cbf 66d4 4bbf 124a 50bf 2388 7dbf
00000040: 0906 6cbf 4b75 5bbf e49e 7ebf ab5b 7fbf
00000050: c850 79bf b29d 6abf 0251 47bf 9978 6bbf
00000060: 4af3 63bf 2fa8 89bf 309a 71bf f03e 97bf
00000070: dea0 83bf a0b5 82bf a48d 86bf 7ffe 8dbf
00000080: 7b65 52bf ea56 66bf 7a9d 62bf f25d 78bf
00000090: 4e31 7fbf 7be8 61bf 7fbc 5ebf 3b9b 4bbf
000000a0: 0aeb 79bf 7584 49bf 3246 83bf a22b 81bf
000000b0: 6116 6ebf aac5 8bbf af8e 58bf d13e 4cbf
000000c0: 302a 9fbf 29a1 52bf 0af4 1dbf 35d7 3cbf
000000d0: 7023 f1be c7e8 0dbf d2a3 2cbf fac8 edbe
000000e0: 6284 12bf 6ea2 0dbf e8c1 efbe 8680 5dbe
000000f0: 39cd 25bf d39e 0fbf 1a01 19bf e25c 06bf
00000100: 7aab 13bf 246d ebbe ca89 1dbf dd0a 26bf
00000110: d44a 2abf 121b c2be 2c2a e4be 9932 29bf
00000120: f32c 0fbf 6fc1 18bf b73f ebbe bab0 febe
00000130: b6fc 05bf 264b 47bf 02ae 34bf f5d4 04bf
00000140: 4e1c d3be 0ef6 f2be 65b1 0dbf 2ffe 0dbf
00000150: 8758 ecbe 7abb 2bbf 2360 03bf 491e 48bf
00000160: 2f00 16bf dff5 2bbf 6d2a 1bbf d0df 30bf
00000170: 4188 2abf e05b 03bf bac6 eebe 5dc1 06bf
00000180: df35 17bf b994 06bf b7be edbe c044 13bf
00000190: fc3d 59bc 1de0 903c e7cb d23d 7c4e 003e
000001a0: 0998 8f3d 63a0 ac3d e4f1 893d 27ff 553d
000001b0: 908e ae3d ada5 823d 2236 c7bd 740a 153d
000001c0: 7fec 41bc 00f6 ac3c 92bf b63d 8b50 8f3d
000001d0: 308c ed39 d69f 04be 603d 74bc 0fe6 14bd
000001e0: b7a0 8cbd 169c 8f3c 9e7e 8e3d b7e8 ccbd
000001f0: a978 bb3d 5e25 0f3d 8b29 efbd 85df d5bd
00000200: 06f0 9d3d d4f4 eabc 81be 303d 6707 103d
00000210: a6bb 953d 1402 87bd 99b8 f3bc 83d4 e73d
00000220: 53b0 8f3d 8d82 9b3d 6cf1 30bd 9c5a a3bc
00000230: 9e29 023e 197b c83d 6509 dd3c 6fef cfbd
00000240: 285f fcbb 7913 53bd e672 d23d fbc7 453d
00000250: 53fe b3bc 3d03 253c 01cb 82bf 8733 7fbf
00000260: a5b2 62bf 2b27 8fbf b372 76bf 89dd 4ebf
00000270: 9be9 33bf cf22 59bf 571a 61bf d855 cbbe
00000280: cb85 60bf 71f6 97bf f222 51bf c5e3 36bf
00000290: 32dd 49bf 46de 88bf 5e01 74bf 4581 74bf
000002a0: a307 84bf 0bd6 63bf ca33 87bf ec3e 62bf
000002b0: 3735 4bbf 6328 86bf 059d 70bf 2b35 5ebf
000002c0: 53fe 8cbf d9cf 87bf 4bcc 7dbf 49b6 82bf
000002d0: 7e86 5cbf 4ce5 63bf f11e 5cbf b638 70bf
000002e0: 8adb 41bf 6437 55bf f357 7abf 558d 8ebf
000002f0: 796f 63bf d1d8 63bf 8459 6cbf 5965 60bf
00000300: 2963 93bf 6c0e 89bf 6570 7fbf d1ae 67bf
00000310: ae4a 47bf 3580 46bf e542 91bf fdb6 5bbf

lstm.bias_hh_l1 f4 [200]
-0.96611416 -1.175932 -0.81809664 -0.92854095 -0.85121465 -0.9939083 -0.59439784 -0.7037381
-0.9601726 -0.31694907 -0.9069948 -0.9819653 -1.0125746 -0.5948122 -1.0291729 -1.1337562
-0.92130995 -0.9227146 -1.0608183 -0.7822353 -0.7773822 -1.0559199 -0.85225505 -0.948903
-0.977328 -0.95950794 -0.9073769 -1.0419216 -1.111481 -0.9187651 -1.0861098 -0.9959887
-0.80229867 -0.9411794 -0.9295643 -1.1043842 -0.9353425 -1.0424216 -0.9779726 -0.90183234
-1.1296164 -0.8355558 -1.0127218 -1.0414637 -1.0551828 -1.0285999 -0.8499164 -0.79544795
-1.0650225 -0.91317344 -0.58982915 -0.577458 -0.5361369 -0.67598295 -0.6942333 -0.65251476
-0.4640565 -0.5434074 -0.5313452 -0.27396736 -0.5520996 -0.7956507 -0.42446274 -0.5309838
-0.7215864 -0.6901652 -0.7357548 -0.5851852 -0.55895305 -0.59607047 -0.61297643 -0.6471166
-0.4956599 -0.65519464 -0.653031 -0.57078 -0.54371345 -0.5392274 -0.51112443 -0.691536
-0.47682855 -0.5711335 -0.5858099 -0.5533369 -0.5784515 -0.6536744 -0.5966132 -0.5331188
-0.47928262 -0.6599331 -0.58310133 -0.49218222 -0.60994506 -0.5947353 -0.6992889 -0.5120363
-0.54331803 -0.53124857 -0.6216423 -0.4313934 0.028986394 0.0052485494 -0.06902832 -0.08191831
-0.04407389 -0.12603687 -0.015703365 -0.0071763615 -0.03107008 0.02252516 0.07533688 -0.04551415
0.016944187 0.02691281 -0.09066158 -0.08239836 -0.025044894 0.13291961 0.028023694 0.046764176
0.067950666 -0.00994407 -0.013562456 0.076043196 -0.08830832 -0.02049029 0.10132079 0.10534122
-0.10852886 0.008769016 -0.024692256 -0.046028852 -0.0129105225 0.07219068 -0.035473943 -0.08196073
-0.10208265 -0.08766762 0.073996484 -0.04463331 -0.10657137 -0.062348716 -0.034578547 0.123948805
-0.034252744 0.069668874 -0.05973145 0.03134507 0.0077424236 0.049605545 -0.841866 -0.99057025
-0.8046332 -1.0348138 -0.7660951 -0.9969601 -0.7885514 -0.73623234 -1.0071205 -0.1436135
-0.8595421 -1.1452981 -0.86075294 -0.66433996 -0.748075 -1.0080965 -0.9726974 -0.8754669
-0.94270945 -0.9150374 -0.855453 -0.8325738 -0.87119925 -0.8716681 -1.1027212 -1.0439963
-1.0434604 -1.0838083 -0.97726727 -0.91207385 -0.92656 -1.0211884 -0.6250909 -1.0095878
-0.73046696 -0.9835015 -0.9838551 -1.0237749 -0.79330504 -0.76618093 -1.0871252 -0.81314456
-1.1504989 -0.90947473 -0.9875376 -0.88027513 -0.9953745 -0.8735408 -0.9848152 -0.8128606
00000000: 4253 77bf f184 96bf c86e 51bf dcb4 6dbf
00000010: 34e9 59bf c670 7ebf 752a 18bf 2e28 34bf
00000020: dfcd 75bf 2647 a2be d030 68bf 1462 7bbf
00000030: 0b9c 81bf 9d45 18bf f0bb 83bf ec1e 91bf
00000040: f8da 6bbf 0637 6cbf e5c8 87bf 9340 48bf
00000050: 8502 47bf 6228 87bf 632d 5abf 4feb 72bf
00000060: 2b32 7abf 50a2 75bf da49 68bf b05d 85bf
00000070: 0245 8ebf 3134 6bbf a505 8bbf 1ef9 7ebf
00000080: 7263 4dbf 22f1 70bf edf7 6dbf 765c 8dbf
00000090: 9b72 6fbf 126e 85bf 6a5c 7abf 7cde 66bf
000000a0: 4597 90bf fce6 55bf dea0 81bf af4e 85bf
000000b0: 3b10 87bf 29a9 83bf 1f94 59bf 7aa2 4bbf
000000c0: a852 88bf bcc5 69bf 0bff 16bf 4ad4 13bf
000000d0: 4540 09bf 380d 2dbf 46b9 31bf 350b 27bf
000000e0: d098 edbe bf1c 0bbf 3d06 08bf 7345 8cbe
000000f0: 6656 0dbf c4af 4bbf 2e53 d9be 8eee 07bf
00000100: e3b9 38bf abae 30bf 6d5a 3cbf b3ce 15bf
00000110: 8c17 0fbf 1398 18bf 06ec 1cbf 6fa9 25bf
00000120: 22c7 fdbe d6ba 27bf 0a2d 27bf a31e 12bf
00000130: ce30 0bbf cf0a 0abf 0dd9 02bf 8108 31bf
00000140: df22 f4be ce35 12bf a3f7 15bf 7da7 0dbf
00000150: 6615 14bf 3557 27bf a5bb 18bf 797a 08bf
00000160: 8864 f5be 60f1 28bf 2146 15bf 4fff fbbe
00000170: 5c25 1cbf 9340 18bf 9904 33bf d014 03bf
00000180: e416 0bbf e8ff 07bf f323 1fbf 99df dcbe
00000190: e074 ed3c 06fc ab3b b85e 8dbd c9c4 a7bd
000001a0: d386 34bd cf0f 01be 58a4 80bc af27 ebbb
000001b0: ae86 febc af86 b83c 394a 9a3d 0c6d 3abd
000001c0: 89ce 8a3c 4178 dc3c c7ac b9bd 79c0 a8bd
000001d0: f32a cdbc 141c 083e f291 e53c cb8b 3f3d
000001e0: b829 8b3d 74ec 22bc 1035 5ebc 89bc 9b3d
000001f0: feda b4bd 41db a7bc 4681 cf3d 23bd d73d
00000200: 6144 debd ebab 0f3c 6a47 cabc c088 3cbd
00000210: a886 53bc b5d8 933d 204d 11bd 07db a7bd
00000220: b510 d1bd 158b b3bd 788b 973d 6bd1 36bd
00000230: 1742 dabd 5e61 7fbd 3ca2 0dbd dfd8 fd3d
00000240: 9b4c 0cbd 8eae 8e3d f7a8 74bd b063 003d
00000250: 28b4 fd3b 2f2f 4b3d 8884 57bf 0396 7dbf
00000260: 71fc 4dbf c774 84bf cf1e 44bf c738 7fbf
00000270: 81de 49bf b979 3cbf 53e9 80bf 6b0f 13be
00000280: f30a 5cbf 2199 92bf 4e5a 5cbf 2f12 2abf
00000290: d881 3fbf 4e09 81bf b202 79bf 991e 60bf
000002a0: 6855 71bf e43f 6abf f8fe 5abf 8e23 55bf
000002b0: ea06 5fbf a425 5fbf f825 8dbf aca1 85bf
000002c0: 1c90 85bf 3bba 8abf 302e 7abf ac7d 69bf
000002d0: 0933 6dbf 4db6 82bf f505 20bf 2c3a 81bf
000002e0: e2ff 3abf c1c6 7bbf eedd 7bbf 0e0b 83bf
000002f0: 0a16 4bbf 6f24 44bf eb26 8bbf 3e2a 50bf
00000300: 8c43 93bf 56d3 68bf 44cf 7cbf b659 61bf
00000310: ddd0 7ebf 5fa0 5fbf d91c 7cbf a217 50bf

fc.weight f4 [1, 50]
0.0021359934 0.0040887264 0.006102634 -0.0061555677 0.0062594325 0.0034913907 -0.0049133473 -0.0043595093
0.010325111 0.030839596 0.009577555 -0.00841803 0.00896779 0.004053378 0.011245364 0.0024225959
-0.006314673 -0.0020594264 0.0044811075 -0.002636653 0.010182138 0.00060499954 -0.0088361865 0.005523462
-0.0017869981 0.007336292 0.010781396 -0.006730437 -0.0057837553 0.0057156617 -0.0053479318 -0.00078370573
-0.03028387 0.0037334324 -0.00526755 0.005555266 0.0037525794 0.00067193975 -0.0019936657 0.010187662
-0.011605777 -0.003028534 -0.0045932047 -0.0003804497 -0.002362825 -0.00054582185 0.0067296415 0.0024540285
-0.00860631 -0.00013672018
00000000: 06fc 0b3b b9fa 853b 9bf8 c73b a5b4 c9bb
00000010: ed1b cd3b d1cf 643b 2500 a1bb 37da 8ebb
00000020: a82a 293c 52a3 fc3c 2deb 1c3c c7eb 09bc
00000030: a3ed 123c 33d2 843b 7a3e 383c 6ac4 1e3b
00000040: 51eb cebb 71f7 06bb 41d6 923b b2cb 2cbb
00000050: fbd2 263c d598 1e3a a7c5 10bc 28fe b43b
00000060: b539 eaba 4765 f03b 74a4 303c ff8a dcbb
00000070: a885 bdbb 724a bb3b b43d afbb 9a71 4dba
00000080: e115 f8bc 9aac 743b 699b acbb f308 b63b
00000090: d6ed 753b 1d25 303a 29a8 02bb 27ea 263c
000000a0: 2826 3ebc 5e7a 46bb 9882 96bb 1877 c7b9
000000b0: a0d9 1abb 7c15 0fba 5384 dc3b c4d3 203b
000000c0: 7b01 0dbc 8b5c 0fb9
